[net]
#batch=64
#subdivisions=8

batch=1
subdivisions=1

width=1024
height=128
channels=1
momentum=0.949
decay=0.001
angle=0

learning_rate=0.0000005
max_batches = 160000
policy=steps
steps=26,51,76,101,126,151,176,201,226,251,276,301,326,351,376,401,426,451,476,501,526,551,576,601,626,651,676,701,726,751,776,801,826,851,876,901,926,951,976,1001,1026,1051,1076,1101,1126,1151,1176,1201,1226,1251,1276,1301,1326,1351,1376,1401,1426,1451,1476,1501,1526,1551,1576,1601,1626,1651,1676,1701,1726,1751,1776,1801,1826,1851,1876,1901,1926,1951,1976,2001,2026,2051,2076,2101,2126,2151,2176,2201,2226,2251,2276,2301,2326,2351,2376,2401,2426,2451,2476,2501,2526,2551,2576,2601,2626,2651,2676,2701,2726,2751,2776,2801,2826,2851,2876,2901,2926,2951,2976,3001,3026,3051,3076,3101,3126,3151,3176,3201,3226,3251,3276,3301,3326,3351,3376,3401,3426,3451,3476,3501,3526,3551,3576,3601,3626,3651,3676,3701,3726,3751,3776,3801,3826,3851,3876,3901,3926,3951,3976,4001,4026,4051,4076,4101,4126,4151,4176,4201,4226,4251,4276,4301,4326,4351,4376,4401,4426,4451,4476,4501,4526,4551,4576,4601,4626,4651,4676,4701,4726,4751,4776,4801,4826,4851,4876,4901,4926,4951,4976,5001,5026,5051,5076,5101,5126,5151,5176,5201,5226,5251,5276,5301,5326,5351,5376,5401,5426,5451,5476,5501,5526,5551,5576,5601,5626,5651,5676,5701,5726,5751,5776,5801,5826,5851,5876,5901,5926,5951,5976,6001,6026,6051,6076,6101,6126,6151,6176,6201,6226,6251,6276,6301,6326,6351,6376,6401,6426,6451,6476,6501,6526,6551,6576,6601,6626,6651,6676,6701,6726,6751,6776,6801,6826,6851,6876,6901,6926,6951,6976,7001,7026,7051,7076,7101,7126,7151,7176,7201,7226,7251,7276,7301,7326,7351,7376,7401,7426,7451,7476,7501,7526,7551,7576,7601,7626,7651,7676,7701,7726,7751,7776,7801,7826,7851,7876,7901,7926,7951,7976,8001,8026,8051,8076,8101,8126,8151,8176,8201,8226,8251,8276,8301,8326,8351,8376,8401,8426,8451,8476,8501,8526,8551,8576,8601,8626,8651,8676,8701,8726,8751,8776,8801,8826,8851,8876,8901,8926,8951,8976,9001,9026,9051,9076,9101,9126,9151,9176,9201,9226,9251,9276,9301,9326,9351,9376,9401,9426,9451,9476,9501,9526,9551,9576,9601,9626,9651,9676,9701,9726,9751,9776,9801,9826,9851,9876,9901,9926,9951,9976,10001,10026,10051,10076,10101,10126,10151,10176,10201,10226,10251,10276,10301,10326,10351,10376,10401,10426,10451,10476,10501,10526,10551,10576,10601,10626,10651,10676,10701,10726,10751,10776,10801,10826,10851,10876,10901,10926,10951,10976,11001,11026,11051,11076,11101,11126,11151,11176,11201,11226,11251,11276,11301,11326,11351,11376,11401,11426,11451,11476,11501,11526,11551,11576,11601,11626,11651,11676,11701,11726,11751,11776,11801,11826,11851,11876,11901,11926,11951,11976,12001,12026,12051,12076,12101,12126,12151,12176,12201,12226,12251,12276,12301,12326,12351,12376,12401,12426,12451,12476,12501,12526,12551,12576,12601,12626,12651,12676,12701,12726,12751,12776,12801,12826,12851,12876,12901,12926,12951,12976,13001,13026,13051,13076,13101,13126,13151,13176,13201,13226,13251,13276,13301,13326,13351,13376,13401,13426,13451,13476,13501,13526,13551,13576,13601,13626,13651,13676,13701,13726,13751,13776,13801,13826,13851,13876,13901,13926,13951,13976,14001,14026,14051,14076,14101,14126,14151,14176,14201,14226,14251,14276,14301,14326,14351,14376,14401,14426,14451,14476,14501,14526,14551,14576,14601,14626,14651,14676,14701,14726,14751,14776,14801,14826,14851,14876,14901,14926,14951,14976,15001,15026,15051,15076,15101,15126,15151,15176,15201,15226,15251,15276,15301,15326,15351,15376,15401,15426,15451,15476,15501,15526,15551,15576,15601,15626,15651,15676,15701,15726,15751,15776,15801,15826,15851,15876,15901,15926,15951,15976,16001,16026,16051,16076,16101,16126,16151,16176,16201,16226,16251,16276,16301,16326,16351,16376,16401,16426,16451,16476,16501,16526,16551,16576,16601,16626,16651,16676,16701,16726,16751,16776,16801,16826,16851,16876,16901,16926,16951,16976,17001,17026,17051,17076,17101,17126,17151,17176,17201,17226,17251,17276,17301,17326,17351,17376,17401,17426,17451,17476,17501,17526,17551,17576,17601,17626,17651,17676,17701,17726,17751,17776,17801,17826,17851,17876,17901,17926,17951,17976,18001,18026,18051,18076,18101,18126,18151,18176,18201,18226,18251,18276,18301,18326,18351,18376,18401,18426,18451,18476,18501,18526,18551,18576,18601,18626,18651,18676,18701,18726,18751,18776,18801,18826,18851,18876,18901,18926,18951,18976,19001,19026,19051,19076,19101,19126,19151,19176,19201,19226,19251,19276,19301,19326,19351,19376,19401,19426,19451,19476,19501,19526,19551,19576,19601,19626,19651,19676,19701,19726,19751,19776,19801,19826,19851,19876,19901,19926,19951,19976,20001,20026,20051,20076,20101,20126,20151,20176,20201,20226,20251,20276,20301,20326,20351,20376,20401,20426,20451,20476,20501,20526,20551,20576,20601,20626,20651,20676,20701,20726,20751,20776,20801,20826,20851,20876,20901,20926,20951,20976,21001,21026,21051,21076,21101,21126,21151,21176,21201,21226,21251,21276,21301,21326,21351,21376,21401,21426,21451,21476,21501,21526,21551,21576,21601,21626,21651,21676,21701,21726,21751,21776,21801,21826,21851,21876,21901,21926,21951,21976,22001,22026,22051,22076,22101,22126,22151,22176,22201,22226,22251,22276,22301,22326,22351,22376,22401,22426,22451,22476,22501,22526,22551,22576,22601,22626,22651,22676,22701,22726,22751,22776,22801,22826,22851,22876,22901,22926,22951,22976,23001,23026,23051,23076,23101,23126,23151,23176,23201,23226,23251,23276,23301,23326,23351,23376,23401,23426,23451,23476,23501,23526,23551,23576,23601,23626,23651,23676,23701,23726,23751,23776,23801,23826,23851,23876,23901,23926,23951,23976,24001,24026,24051,24076,24101,24126,24151,24176,24201,24226,24251,24276,24301,24326,24351,24376,24401,24426,24451,24476,24501,24526,24551,24576,24601,24626,24651,24676,24701,24726,24751,24776,24801,24826,24851,24876,24901,24926,24951,24976,25001,25026,25051,25076,25101,25126,25151,25176,25201,25226,25251,25276,25301,25326,25351,25376,25401,25426,25451,25476,25501,25526,25551,25576,25601,25626,25651,25676,25701,25726,25751,25776,25801,25826,25851,25876,25901,25926,25951,25976,26001,26026,26051,26076,26101,26126,26151,26176,26201,26226,26251,26276,26301,26326,26351,26376,26401,26426,26451,26476,26501,26526,26551,26576,26601,26626,26651,26676,26701,26726,26751,26776,26801,26826,26851,26876,26901,26926,26951,26976,27001,27026,27051,27076,27101,27126,27151,27176,27201,27226,27251,27276,27301,27326,27351,27376,27401,27426,27451,27476,27501,27526,27551,27576,27601,27626,27651,27676,27701,27726,27751,27776,27801,27826,27851,27876,27901,27926,27951,27976,28001,28026,28051,28076,28101,28126,28151,28176,28201,28226,28251,28276,28301,28326,28351,28376,28401,28426,28451,28476,28501,28526,28551,28576,28601,28626,28651,28676,28701,28726,28751,28776,28801,28826,28851,28876,28901,28926,28951,28976,29001,29026,29051,29076,29101,29126,29151,29176,29201,29226,29251,29276,29301,29326,29351,29376,29401,29426,29451,29476,29501,29526,29551,29576,29601,29626,29651,29676,29701,29726,29751,29776,29801,29826,29851,29876,29901,29926,29951,29976,30001,30026,30051,30076,30101,30126,30151,30176,30201,30226,30251,30276,30301,30326,30351,30376,30401,30426,30451,30476,30501,30526,30551,30576,30601,30626,30651,30676,30701,30726,30751,30776,30801,30826,30851,30876,30901,30926,30951,30976,31001,31026,31051,31076,31101,31126,31151,31176,31201,31226,31251,31276,31301,31326,31351,31376,31401,31426,31451,31476,31501,31526,31551,31576,31601,31626,31651,31676,31701,31726,31751,31776,31801,31826,31851,31876,31901,31926,31951,31976,32001,32026,32051,32076,32101,32126,32151,32176,32201,32226,32251,32276,32301,32326,32351,32376,32401,32426,32451,32476,32501,32526,32551,32576,32601,32626,32651,32676,32701,32726,32751,32776,32801,32826,32851,32876,32901,32926,32951,32976,33001,33026,33051,33076,33101,33126,33151,33176,33201,33226,33251,33276,33301,33326,33351,33376,33401,33426,33451,33476,33501,33526,33551,33576,33601,33626,33651,33676,33701,33726,33751,33776,33801,33826,33851,33876,33901,33926,33951,33976,34001,34026,34051,34076,34101,34126,34151,34176,34201,34226,34251,34276,34301,34326,34351,34376,34401,34426,34451,34476,34501,34526,34551,34576,34601,34626,34651,34676,34701,34726,34751,34776,34801,34826,34851,34876,34901,34926,34951,34976,35001,35026,35051,35076,35101,35126,35151,35176,35201,35226,35251,35276,35301,35326,35351,35376,35401,35426,35451,35476,35501,35526,35551,35576,35601,35626,35651,35676,35701,35726,35751,35776,35801,35826,35851,35876,35901,35926,35951,35976,36001,36026,36051,36076,36101,36126,36151,36176,36201,36226,36251,36276,36301,36326,36351,36376,36401,36426,36451,36476,36501,36526,36551,36576,36601,36626,36651,36676,36701,36726,36751,36776,36801,36826,36851,36876,36901,36926,36951,36976,37001,37026,37051,37076,37101,37126,37151,37176,37201,37226,37251,37276,37301,37326,37351,37376,37401,37426,37451,37476,37501,37526,37551,37576,37601,37626,37651,37676,37701,37726,37751,37776,37801,37826,37851,37876,37901,37926,37951,37976,38001,38026,38051,38076,38101,38126,38151,38176,38201,38226,38251,38276,38301,38326,38351,38376,38401,38426,38451,38476,38501,38526,38551,38576,38601,38626,38651,38676,38701,38726,38751,38776,38801,38826,38851,38876,38901,38926,38951,38976,39001,39026,39051,39076,39101,39126,39151,39176,39201,39226,39251,39276,39301,39326,39351,39376,39401,39426,39451,39476,39501,39526,39551,39576,39601,39626,39651,39676,39701,39726,39751,39776,39801,39826,39851,39876,39901,39926,39951,39976,40001,40026,40051,40076,40101,40126,40151,40176,40201,40226,40251,40276,40301,40326,40351,40376,40401,40426,40451,40476,40501,40526,40551,40576,40601,40626,40651,40676,40701,40726,40751,40776,40801,40826,40851,40876,40901,40926,40951,40976,41001,41026,41051,41076,41101,41126,41151,41176,41201,41226,41251,41276,41301,41326,41351,41376,41401,41426,41451,41476,41501,41526,41551,41576,41601,41626,41651,41676,41701,41726,41751,41776,41801,41826,41851,41876,41901,41926,41951,41976,42001,42026,42051,42076,42101,42126,42151,42176,42201,42226,42251,42276,42301,42326,42351,42376,42401,42426,42451,42476,42501,42526,42551,42576,42601,42626,42651,42676,42701,42726,42751,42776,42801,42826,42851,42876,42901,42926,42951,42976,43001,43026,43051,43076,43101,43126,43151,43176,43201,43226,43251,43276,43301,43326,43351,43376,43401,43426,43451,43476,43501,43526,43551,43576,43601,43626,43651,43676,43701,43726,43751,43776,43801,43826,43851,43876,43901,43926,43951,43976,44001,44026,44051,44076,44101,44126,44151,44176,44201,44226,44251,44276,44301,44326,44351,44376,44401,44426,44451,44476,44501,44526,44551,44576,44601,44626,44651,44676,44701,44726,44751,44776,44801,44826,44851,44876,44901,44926,44951,44976,45001,45026,45051,45076,45101,45126,45151,45176,45201,45226,45251,45276,45301,45326,45351,45376,45401,45426,45451,45476,45501,45526,45551,45576,45601,45626,45651,45676,45701,45726,45751,45776,45801,45826,45851,45876,45901,45926,45951,45976,46001,46026,46051,46076,46101,46126,46151,46176,46201,46226,46251,46276,46301,46326,46351,46376,46401,46426,46451,46476,46501,46526,46551,46576,46601,46626,46651,46676,46701,46726,46751,46776,46801,46826,46851,46876,46901,46926,46951,46976,47001,47026,47051,47076,47101,47126,47151,47176,47201,47226,47251,47276,47301,47326,47351,47376,47401,47426,47451,47476,47501,47526,47551,47576,47601,47626,47651,47676,47701,47726,47751,47776,47801,47826,47851,47876,47901,47926,47951,47976,48001,48026,48051,48076,48101,48126,48151,48176,48201,48226,48251,48276,48301,48326,48351,48376,48401,48426,48451,48476,48501,48526,48551,48576,48601,48626,48651,48676,48701,48726,48751,48776,48801,48826,48851,48876,48901,48926,48951,48976,49001,49026,49051,49076,49101,49126,49151,49176,49201,49226,49251,49276,49301,49326,49351,49376,49401,49426,49451,49476,49501,49526,49551,49576,49601,49626,49651,49676,49701,49726,49751,49776,49801,49826,49851,49876,49901,49926,49951,49976,50001,50026,50051,50076,50101,50126,50151,50176,50201,50226,50251,50276,50301,50326,50351,50376,50401,50426,50451,50476,50501,50526,50551,50576,50601,50626,50651,50676,50701,50726,50751,50776,50801,50826,50851,50876,50901,50926,50951,50976,51001,51026,51051,51076,51101,51126,51151,51176,51201,51226,51251,51276,51301,51326,51351,51376,51401,51426,51451,51476,51501,51526,51551,51576,51601,51626,51651,51676,51701,51726,51751,51776,51801,51826,51851,51876,51901,51926,51951,51976,52001,52026,52051,52076,52101,52126,52151,52176,52201,52226,52251,52276,52301,52326,52351,52376,52401,52426,52451,52476,52501,52526,52551,52576,52601,52626,52651,52676,52701,52726,52751,52776,52801,52826,52851,52876,52901,52926,52951,52976,53001,53026,53051,53076,53101,53126,53151,53176,53201,53226,53251,53276,53301,53326,53351,53376,53401,53426,53451,53476,53501,53526,53551,53576,53601,53626,53651,53676,53701,53726,53751,53776,53801,53826,53851,53876,53901,53926,53951,53976,54001,54026,54051,54076,54101,54126,54151,54176,54201,54226,54251,54276,54301,54326,54351,54376,54401,54426,54451,54476,54501,54526,54551,54576,54601,54626,54651,54676,54701,54726,54751,54776,54801,54826,54851,54876,54901,54926,54951,54976,55001,55026,55051,55076,55101,55126,55151,55176,55201,55226,55251,55276,55301,55326,55351,55376,55401,55426,55451,55476,55501,55526,55551,55576,55601,55626,55651,55676,55701,55726,55751,55776,55801,55826,55851,55876,55901,55926,55951,55976,56001,56026,56051,56076,56101,56126,56151,56176,56201,56226,56251,56276,56301,56326,56351,56376,56401,56426,56451,56476,56501,56526,56551,56576,56601,56626,56651,56676,56701,56726,56751,56776,56801,56826,56851,56876,56901,56926,56951,56976,57001,57026,57051,57076,57101,57126,57151,57176,57201,57226,57251,57276,57301,57326,57351,57376,57401,57426,57451,57476,57501,57526,57551,57576,57601,57626,57651,57676,57701,57726,57751,57776,57801,57826,57851,57876,57901,57926,57951,57976,58001,58026,58051,58076,58101,58126,58151,58176,58201,58226,58251,58276,58301,58326,58351,58376,58401,58426,58451,58476,58501,58526,58551,58576,58601,58626,58651,58676,58701,58726,58751,58776,58801,58826,58851,58876,58901,58926,58951,58976,59001,59026,59051,59076,59101,59126,59151,59176,59201,59226,59251,59276,59301,59326,59351,59376,59401,59426,59451,59476,59501,59526,59551,59576,59601,59626,59651,59676,59701,59726,59751,59776,59801,59826,59851,59876,59901,59926,59951,59976,60001,60026,60051,60076,60101,60126,60151,60176,60201,60226,60251,60276,60301,60326,60351,60376,60401,60426,60451,60476,60501,60526,60551,60576,60601,60626,60651,60676,60701,60726,60751,60776,60801,60826,60851,60876,60901,60926,60951,60976,61001,61026,61051,61076,61101,61126,61151,61176,61201,61226,61251,61276,61301,61326,61351,61376,61401,61426,61451,61476,61501,61526,61551,61576,61601,61626,61651,61676,61701,61726,61751,61776,61801,61826,61851,61876,61901,61926,61951,61976,62001,62026,62051,62076,62101,62126,62151,62176,62201,62226,62251,62276,62301,62326,62351,62376,62401,62426,62451,62476,62501,62526,62551,62576,62601,62626,62651,62676,62701,62726,62751,62776,62801,62826,62851,62876,62901,62926,62951,62976,63001,63026,63051,63076,63101,63126,63151,63176,63201,63226,63251,63276,63301,63326,63351,63376,63401,63426,63451,63476,63501,63526,63551,63576,63601,63626,63651,63676,63701,63726,63751,63776,63801,63826,63851,63876,63901,63926,63951,63976,64001,64026,64051,64076,64101,64126,64151,64176,64201,64226,64251,64276,64301,64326,64351,64376,64401,64426,64451,64476,64501,64526,64551,64576,64601,64626,64651,64676,64701,64726,64751,64776,64801,64826,64851,64876,64901,64926,64951,64976,65001,65026,65051,65076,65101,65126,65151,65176,65201,65226,65251,65276,65301,65326,65351,65376,65401,65426,65451,65476,65501,65526,65551,65576,65601,65626,65651,65676,65701,65726,65751,65776,65801,65826,65851,65876,65901,65926,65951,65976,66001,66026,66051,66076,66101,66126,66151,66176,66201,66226,66251,66276,66301,66326,66351,66376,66401,66426,66451,66476,66501,66526,66551,66576,66601,66626,66651,66676,66701,66726,66751,66776,66801,66826,66851,66876,66901,66926,66951,66976,67001,67026,67051,67076,67101,67126,67151,67176,67201,67226,67251,67276,67301,67326,67351,67376,67401,67426,67451,67476,67501,67526,67551,67576,67601,67626,67651,67676,67701,67726,67751,67776,67801,67826,67851,67876,67901,67926,67951,67976,68001,68026,68051,68076,68101,68126,68151,68176,68201,68226,68251,68276,68301,68326,68351,68376,68401,68426,68451,68476,68501,68526,68551,68576,68601,68626,68651,68676,68701,68726,68751,68776,68801,68826,68851,68876,68901,68926,68951,68976,69001,69026,69051,69076,69101,69126,69151,69176,69201,69226,69251,69276,69301,69326,69351,69376,69401,69426,69451,69476,69501,69526,69551,69576,69601,69626,69651,69676,69701,69726,69751,69776,69801,69826,69851,69876,69901,69926,69951,69976,70001,70026,70051,70076,70101,70126,70151,70176,70201,70226,70251,70276,70301,70326,70351,70376,70401,70426,70451,70476,70501,70526,70551,70576,70601,70626,70651,70676,70701,70726,70751,70776,70801,70826,70851,70876,70901,70926,70951,70976,71001,71026,71051,71076,71101,71126,71151,71176,71201,71226,71251,71276,71301,71326,71351,71376,71401,71426,71451,71476,71501,71526,71551,71576,71601,71626,71651,71676,71701,71726,71751,71776,71801,71826,71851,71876,71901,71926,71951,71976,72001,72026,72051,72076,72101,72126,72151,72176,72201,72226,72251,72276,72301,72326,72351,72376,72401,72426,72451,72476,72501,72526,72551,72576,72601,72626,72651,72676,72701,72726,72751,72776,72801,72826,72851,72876,72901,72926,72951,72976,73001,73026,73051,73076,73101,73126,73151,73176,73201,73226,73251,73276,73301,73326,73351,73376,73401,73426,73451,73476,73501,73526,73551,73576,73601,73626,73651,73676,73701,73726,73751,73776,73801,73826,73851,73876,73901,73926,73951,73976,74001,74026,74051,74076,74101,74126,74151,74176,74201,74226,74251,74276,74301,74326,74351,74376,74401,74426,74451,74476,74501,74526,74551,74576,74601,74626,74651,74676,74701,74726,74751,74776,74801,74826,74851,74876,74901,74926,74951,74976,75001,75026,75051,75076,75101,75126,75151,75176,75201,75226,75251,75276,75301,75326,75351,75376,75401,75426,75451,75476,75501,75526,75551,75576,75601,75626,75651,75676,75701,75726,75751,75776,75801,75826,75851,75876,75901,75926,75951,75976,76001,76026,76051,76076,76101,76126,76151,76176,76201,76226,76251,76276,76301,76326,76351,76376,76401,76426,76451,76476,76501,76526,76551,76576,76601,76626,76651,76676,76701,76726,76751,76776,76801,76826,76851,76876,76901,76926,76951,76976,77001,77026,77051,77076,77101,77126,77151,77176,77201,77226,77251,77276,77301,77326,77351,77376,77401,77426,77451,77476,77501,77526,77551,77576,77601,77626,77651,77676,77701,77726,77751,77776,77801,77826,77851,77876,77901,77926,77951,77976,78001,78026,78051,78076,78101,78126,78151,78176,78201,78226,78251,78276,78301,78326,78351,78376,78401,78426,78451,78476,78501,78526,78551,78576,78601,78626,78651,78676,78701,78726,78751,78776,78801,78826,78851,78876,78901,78926,78951,78976,79001,79026,79051,79076,79101,79126,79151,79176,79201,79226,79251,79276,79301,79326,79351,79376,79401,79426,79451,79476,79501,79526,79551,79576,79601,79626,79651,79676,79701,79726,79751,79776,79801,79826,79851,79876,79901,79926,79951,79976,80001,80026,80051,80076,80101,80126,80151,80176,80201,80226,80251,80276,80301,80326,80351,80376,80401,80426,80451,80476,80501,80526,80551,80576,80601,80626,80651,80676,80701,80726,80751,80776,80801,80826,80851,80876,80901,80926,80951,80976,81001,81026,81051,81076,81101,81126,81151,81176,81201,81226,81251,81276,81301,81326,81351,81376,81401,81426,81451,81476,81501,81526,81551,81576,81601,81626,81651,81676,81701,81726,81751,81776,81801,81826,81851,81876,81901,81926,81951,81976,82001,82026,82051,82076,82101,82126,82151,82176,82201,82226,82251,82276,82301,82326,82351,82376,82401,82426,82451,82476,82501,82526,82551,82576,82601,82626,82651,82676,82701,82726,82751,82776,82801,82826,82851,82876,82901,82926,82951,82976,83001,83026,83051,83076,83101,83126,83151,83176,83201,83226,83251,83276,83301,83326,83351,83376,83401,83426,83451,83476,83501,83526,83551,83576,83601,83626,83651,83676,83701,83726,83751,83776,83801,83826,83851,83876,83901,83926,83951,83976,84001,84026,84051,84076,84101,84126,84151,84176,84201,84226,84251,84276,84301,84326,84351,84376,84401,84426,84451,84476,84501,84526,84551,84576,84601,84626,84651,84676,84701,84726,84751,84776,84801,84826,84851,84876,84901,84926,84951,84976,85001,85026,85051,85076,85101,85126,85151,85176,85201,85226,85251,85276,85301,85326,85351,85376,85401,85426,85451,85476,85501,85526,85551,85576,85601,85626,85651,85676,85701,85726,85751,85776,85801,85826,85851,85876,85901,85926,85951,85976,86001,86026,86051,86076,86101,86126,86151,86176,86201,86226,86251,86276,86301,86326,86351,86376,86401,86426,86451,86476,86501,86526,86551,86576,86601,86626,86651,86676,86701,86726,86751,86776,86801,86826,86851,86876,86901,86926,86951,86976,87001,87026,87051,87076,87101,87126,87151,87176,87201,87226,87251,87276,87301,87326,87351,87376,87401,87426,87451,87476,87501,87526,87551,87576,87601,87626,87651,87676,87701,87726,87751,87776,87801,87826,87851,87876,87901,87926,87951,87976,88001,88026,88051,88076,88101,88126,88151,88176,88201,88226,88251,88276,88301,88326,88351,88376,88401,88426,88451,88476,88501,88526,88551,88576,88601,88626,88651,88676,88701,88726,88751,88776,88801,88826,88851,88876,88901,88926,88951,88976,89001,89026,89051,89076,89101,89126,89151,89176,89201,89226,89251,89276,89301,89326,89351,89376,89401,89426,89451,89476,89501,89526,89551,89576,89601,89626,89651,89676,89701,89726,89751,89776,89801,89826,89851,89876,89901,89926,89951,89976,90001,90026,90051,90076,90101,90126,90151,90176,90201,90226,90251,90276,90301,90326,90351,90376,90401,90426,90451,90476,90501,90526,90551,90576,90601,90626,90651,90676,90701,90726,90751,90776,90801,90826,90851,90876,90901,90926,90951,90976,91001,91026,91051,91076,91101,91126,91151,91176,91201,91226,91251,91276,91301,91326,91351,91376,91401,91426,91451,91476,91501,91526,91551,91576,91601,91626,91651,91676,91701,91726,91751,91776,91801,91826,91851,91876,91901,91926,91951,91976,92001,92026,92051,92076,92101,92126,92151,92176,92201,92226,92251,92276,92301,92326,92351,92376,92401,92426,92451,92476,92501,92526,92551,92576,92601,92626,92651,92676,92701,92726,92751,92776,92801,92826,92851,92876,92901,92926,92951,92976,93001,93026,93051,93076,93101,93126,93151,93176,93201,93226,93251,93276,93301,93326,93351,93376,93401,93426,93451,93476,93501,93526,93551,93576,93601,93626,93651,93676,93701,93726,93751,93776,93801,93826,93851,93876,93901,93926,93951,93976,94001,94026,94051,94076,94101,94126,94151,94176,94201,94226,94251,94276,94301,94326,94351,94376,94401,94426,94451,94476,94501,94526,94551,94576,94601,94626,94651,94676,94701,94726,94751,94776,94801,94826,94851,94876,94901,94926,94951,94976,95001,95026,95051,95076,95101,95126,95151,95176,95201,95226,95251,95276,95301,95326,95351,95376,95401,95426,95451,95476,95501,95526,95551,95576,95601,95626,95651,95676,95701,95726,95751,95776,95801,95826,95851,95876,95901,95926,95951,95976,96001,96026,96051,96076,96101,96126,96151,96176,96201,96226,96251,96276,96301,96326,96351,96376,96401,96426,96451,96476,96501,96526,96551,96576,96601,96626,96651,96676,96701,96726,96751,96776,96801,96826,96851,96876,96901,96926,96951,96976,97001,97026,97051,97076,97101,97126,97151,97176,97201,97226,97251,97276,97301,97326,97351,97376,97401,97426,97451,97476,97501,97526,97551,97576,97601,97626,97651,97676,97701,97726,97751,97776,97801,97826,97851,97876,97901,97926,97951,97976,98001,98026,98051,98076,98101,98126,98151,98176,98201,98226,98251,98276,98301,98326,98351,98376,98401,98426,98451,98476,98501,98526,98551,98576,98601,98626,98651,98676,98701,98726,98751,98776,98801,98826,98851,98876,98901,98926,98951,98976,99001,99026,99051,99076,99101,99126,99151,99176,99201,99226,99251,99276,99301,99326,99351,99376,99401,99426,99451,99476,99501,99526,99551,99576,99601,99626,99651,99676,99701,99726,99751,99776,99801,99826,99851,99876,99901,99926,99951,99976,100001,100026,100051,100076,100101,100126,100151,100176,100201,100226,100251,100276,100301,100326,100351,100376,100401,100426,100451,100476,100501,100526,100551,100576,100601,100626,100651,100676,100701,100726,100751,100776,100801,100826,100851,100876,100901,100926,100951,100976,101001,101026,101051,101076,101101,101126,101151,101176,101201,101226,101251,101276,101301,101326,101351,101376,101401,101426,101451,101476,101501,101526,101551,101576,101601,101626,101651,101676,101701,101726,101751,101776,101801,101826,101851,101876,101901,101926,101951,101976,102001,102026,102051,102076,102101,102126,102151,102176,102201,102226,102251,102276,102301,102326,102351,102376,102401,102426,102451,102476,102501,102526,102551,102576,102601,102626,102651,102676,102701,102726,102751,102776,102801,102826,102851,102876,102901,102926,102951,102976,103001,103026,103051,103076,103101,103126,103151,103176,103201,103226,103251,103276,103301,103326,103351,103376,103401,103426,103451,103476,103501,103526,103551,103576,103601,103626,103651,103676,103701,103726,103751,103776,103801,103826,103851,103876,103901,103926,103951,103976,104001,104026,104051,104076,104101,104126,104151,104176,104201,104226,104251,104276,104301,104326,104351,104376,104401,104426,104451,104476,104501,104526,104551,104576,104601,104626,104651,104676,104701,104726,104751,104776,104801,104826,104851,104876,104901,104926,104951,104976,105001,105026,105051,105076,105101,105126,105151,105176,105201,105226,105251,105276,105301,105326,105351,105376,105401,105426,105451,105476,105501,105526,105551,105576,105601,105626,105651,105676,105701,105726,105751,105776,105801,105826,105851,105876,105901,105926,105951,105976,106001,106026,106051,106076,106101,106126,106151,106176,106201,106226,106251,106276,106301,106326,106351,106376,106401,106426,106451,106476,106501,106526,106551,106576,106601,106626,106651,106676,106701,106726,106751,106776,106801,106826,106851,106876,106901,106926,106951,106976,107001,107026,107051,107076,107101,107126,107151,107176,107201,107226,107251,107276,107301,107326,107351,107376,107401,107426,107451,107476,107501,107526,107551,107576,107601,107626,107651,107676,107701,107726,107751,107776,107801,107826,107851,107876,107901,107926,107951,107976,108001,108026,108051,108076,108101,108126,108151,108176,108201,108226,108251,108276,108301,108326,108351,108376,108401,108426,108451,108476,108501,108526,108551,108576,108601,108626,108651,108676,108701,108726,108751,108776,108801,108826,108851,108876,108901,108926,108951,108976,109001,109026,109051,109076,109101,109126,109151,109176,109201,109226,109251,109276,109301,109326,109351,109376,109401,109426,109451,109476,109501,109526,109551,109576,109601,109626,109651,109676,109701,109726,109751,109776,109801,109826,109851,109876,109901,109926,109951,109976,110001,110026,110051,110076,110101,110126,110151,110176,110201,110226,110251,110276,110301,110326,110351,110376,110401,110426,110451,110476,110501,110526,110551,110576,110601,110626,110651,110676,110701,110726,110751,110776,110801,110826,110851,110876,110901,110926,110951,110976,111001,111026,111051,111076,111101,111126,111151,111176,111201,111226,111251,111276,111301,111326,111351,111376,111401,111426,111451,111476,111501,111526,111551,111576,111601,111626,111651,111676,111701,111726,111751,111776,111801,111826,111851,111876,111901,111926,111951,111976,112001,112026,112051,112076,112101,112126,112151,112176,112201,112226,112251,112276,112301,112326,112351,112376,112401,112426,112451,112476,112501,112526,112551,112576,112601,112626,112651,112676,112701,112726,112751,112776,112801,112826,112851,112876,112901,112926,112951,112976,113001,113026,113051,113076,113101,113126,113151,113176,113201,113226,113251,113276,113301,113326,113351,113376,113401,113426,113451,113476,113501,113526,113551,113576,113601,113626,113651,113676,113701,113726,113751,113776,113801,113826,113851,113876,113901,113926,113951,113976,114001,114026,114051,114076,114101,114126,114151,114176,114201,114226,114251,114276,114301,114326,114351,114376,114401,114426,114451,114476,114501,114526,114551,114576,114601,114626,114651,114676,114701,114726,114751,114776,114801,114826,114851,114876,114901,114926,114951,114976,115001,115026,115051,115076,115101,115126,115151,115176,115201,115226,115251,115276,115301,115326,115351,115376,115401,115426,115451,115476,115501,115526,115551,115576,115601,115626,115651,115676,115701,115726,115751,115776,115801,115826,115851,115876,115901,115926,115951,115976,116001,116026,116051,116076,116101,116126,116151,116176,116201,116226,116251,116276,116301,116326,116351,116376,116401,116426,116451,116476,116501,116526,116551,116576,116601,116626,116651,116676,116701,116726,116751,116776,116801,116826,116851,116876,116901,116926,116951,116976,117001,117026,117051,117076,117101,117126,117151,117176,117201,117226,117251,117276,117301,117326,117351,117376,117401,117426,117451,117476,117501,117526,117551,117576,117601,117626,117651,117676,117701,117726,117751,117776,117801,117826,117851,117876,117901,117926,117951,117976,118001,118026,118051,118076,118101,118126,118151,118176,118201,118226,118251,118276,118301,118326,118351,118376,118401,118426,118451,118476,118501,118526,118551,118576,118601,118626,118651,118676,118701,118726,118751,118776,118801,118826,118851,118876,118901,118926,118951,118976,119001,119026,119051,119076,119101,119126,119151,119176,119201,119226,119251,119276,119301,119326,119351,119376,119401,119426,119451,119476,119501,119526,119551,119576,119601,119626,119651,119676,119701,119726,119751,119776,119801,119826,119851,119876,119901,119926,119951,119976,120001,120026,120051,120076,120101,120126,120151,120176,120201,120226,120251,120276,120301,120326,120351,120376,120401,120426,120451,120476,120501,120526,120551,120576,120601,120626,120651,120676,120701,120726,120751,120776,120801,120826,120851,120876,120901,120926,120951,120976,121001,121026,121051,121076,121101,121126,121151,121176,121201,121226,121251,121276,121301,121326,121351,121376,121401,121426,121451,121476,121501,121526,121551,121576,121601,121626,121651,121676,121701,121726,121751,121776,121801,121826,121851,121876,121901,121926,121951,121976,122001,122026,122051,122076,122101,122126,122151,122176,122201,122226,122251,122276,122301,122326,122351,122376,122401,122426,122451,122476,122501,122526,122551,122576,122601,122626,122651,122676,122701,122726,122751,122776,122801,122826,122851,122876,122901,122926,122951,122976,123001,123026,123051,123076,123101,123126,123151,123176,123201,123226,123251,123276,123301,123326,123351,123376,123401,123426,123451,123476,123501,123526,123551,123576,123601,123626,123651,123676,123701,123726,123751,123776,123801,123826,123851,123876,123901,123926,123951,123976,124001,124026,124051,124076,124101,124126,124151,124176,124201,124226,124251,124276,124301,124326,124351,124376,124401,124426,124451,124476,124501,124526,124551,124576,124601,124626,124651,124676,124701,124726,124751,124776,124801,124826,124851,124876,124901,124926,124951,124976,125001,125026,125051,125076,125101,125126,125151,125176,125201,125226,125251,125276,125301,125326,125351,125376,125401,125426,125451,125476,125501,125526,125551,125576,125601,125626,125651,125676,125701,125726,125751,125776,125801,125826,125851,125876,125901,125926,125951,125976,126001,126026,126051,126076,126101,126126,126151,126176,126201,126226,126251,126276,126301,126326,126351,126376,126401,126426,126451,126476,126501,126526,126551,126576,126601,126626,126651,126676,126701,126726,126751,126776,126801,126826,126851,126876,126901,126926,126951,126976,127001,127026,127051,127076,127101,127126,127151,127176,127201,127226,127251,127276,127301,127326,127351,127376,127401,127426,127451,127476,127501,127526,127551,127576,127601,127626,127651,127676,127701,127726,127751,127776,127801,127826,127851,127876,127901,127926,127951,127976,128001,128026,128051,128076,128101,128126,128151,128176,128201,128226,128251,128276,128301,128326,128351,128376,128401,128426,128451,128476,128501,128526,128551,128576,128601,128626,128651,128676,128701,128726,128751,128776,128801,128826,128851,128876,128901,128926,128951,128976,129001,129026,129051,129076,129101,129126,129151,129176,129201,129226,129251,129276,129301,129326,129351,129376,129401,129426,129451,129476,129501,129526,129551,129576,129601,129626,129651,129676,129701,129726,129751,129776,129801,129826,129851,129876,129901,129926,129951,129976,130001,130026,130051,130076,130101,130126,130151,130176,130201,130226,130251,130276,130301,130326,130351,130376,130401,130426,130451,130476,130501,130526,130551,130576,130601,130626,130651,130676,130701,130726,130751,130776,130801,130826,130851,130876,130901,130926,130951,130976,131001,131026,131051,131076,131101,131126,131151,131176,131201,131226,131251,131276,131301,131326,131351,131376,131401,131426,131451,131476,131501,131526,131551,131576,131601,131626,131651,131676,131701,131726,131751,131776,131801,131826,131851,131876,131901,131926,131951,131976,132001,132026,132051,132076,132101,132126,132151,132176,132201,132226,132251,132276,132301,132326,132351,132376,132401,132426,132451,132476,132501,132526,132551,132576,132601,132626,132651,132676,132701,132726,132751,132776,132801,132826,132851,132876,132901,132926,132951,132976,133001,133026,133051,133076,133101,133126,133151,133176,133201,133226,133251,133276,133301,133326,133351,133376,133401,133426,133451,133476,133501,133526,133551,133576,133601,133626,133651,133676,133701,133726,133751,133776,133801,133826,133851,133876,133901,133926,133951,133976,134001,134026,134051,134076,134101,134126,134151,134176,134201,134226,134251,134276,134301,134326,134351,134376,134401,134426,134451,134476,134501,134526,134551,134576,134601,134626,134651,134676,134701,134726,134751,134776,134801,134826,134851,134876,134901,134926,134951,134976,135001,135026,135051,135076,135101,135126,135151,135176,135201,135226,135251,135276,135301,135326,135351,135376,135401,135426,135451,135476,135501,135526,135551,135576,135601,135626,135651,135676,135701,135726,135751,135776,135801,135826,135851,135876,135901,135926,135951,135976,136001,136026,136051,136076,136101,136126,136151,136176,136201,136226,136251,136276,136301,136326,136351,136376,136401,136426,136451,136476,136501,136526,136551,136576,136601,136626,136651,136676,136701,136726,136751,136776,136801,136826,136851,136876,136901,136926,136951,136976,137001,137026,137051,137076,137101,137126,137151,137176,137201,137226,137251,137276,137301,137326,137351,137376,137401,137426,137451,137476,137501,137526,137551,137576,137601,137626,137651,137676,137701,137726,137751,137776,137801,137826,137851,137876,137901,137926,137951,137976,138001,138026,138051,138076,138101,138126,138151,138176,138201,138226,138251,138276,138301,138326,138351,138376,138401,138426,138451,138476,138501,138526,138551,138576,138601,138626,138651,138676,138701,138726,138751,138776,138801,138826,138851,138876,138901,138926,138951,138976,139001,139026,139051,139076,139101,139126,139151,139176,139201,139226,139251,139276,139301,139326,139351,139376,139401,139426,139451,139476,139501,139526,139551,139576,139601,139626,139651,139676,139701,139726,139751,139776,139801,139826,139851,139876,139901,139926,139951,139976,140001,140026,140051,140076,140101,140126,140151,140176,140201,140226,140251,140276,140301,140326,140351,140376,140401,140426,140451,140476,140501,140526,140551,140576,140601,140626,140651,140676,140701,140726,140751,140776,140801,140826,140851,140876,140901,140926,140951,140976,141001,141026,141051,141076,141101,141126,141151,141176,141201,141226,141251,141276,141301,141326,141351,141376,141401,141426,141451,141476,141501,141526,141551,141576,141601,141626,141651,141676,141701,141726,141751,141776,141801,141826,141851,141876,141901,141926,141951,141976,142001,142026,142051,142076,142101,142126,142151,142176,142201,142226,142251,142276,142301,142326,142351,142376,142401,142426,142451,142476,142501,142526,142551,142576,142601,142626,142651,142676,142701,142726,142751,142776,142801,142826,142851,142876,142901,142926,142951,142976,143001,143026,143051,143076,143101,143126,143151,143176,143201,143226,143251,143276,143301,143326,143351,143376,143401,143426,143451,143476,143501,143526,143551,143576,143601,143626,143651,143676,143701,143726,143751,143776,143801,143826,143851,143876,143901,143926,143951,143976,144001,144026,144051,144076,144101,144126,144151,144176,144201,144226,144251,144276,144301,144326,144351,144376,144401,144426,144451,144476,144501,144526,144551,144576,144601,144626,144651,144676,144701,144726,144751,144776,144801,144826,144851,144876,144901,144926,144951,144976,145001,145026,145051,145076,145101,145126,145151,145176,145201,145226,145251,145276,145301,145326,145351,145376,145401,145426,145451,145476,145501,145526,145551,145576,145601,145626,145651,145676,145701,145726,145751,145776,145801,145826,145851,145876,145901,145926,145951,145976,146001,146026,146051,146076,146101,146126,146151,146176,146201,146226,146251,146276,146301,146326,146351,146376,146401,146426,146451,146476,146501,146526,146551,146576,146601,146626,146651,146676,146701,146726,146751,146776,146801,146826,146851,146876,146901,146926,146951,146976,147001,147026,147051,147076,147101,147126,147151,147176,147201,147226,147251,147276,147301,147326,147351,147376,147401,147426,147451,147476,147501,147526,147551,147576,147601,147626,147651,147676,147701,147726,147751,147776,147801,147826,147851,147876,147901,147926,147951,147976,148001,148026,148051,148076,148101,148126,148151,148176,148201,148226,148251,148276,148301,148326,148351,148376,148401,148426,148451,148476,148501,148526,148551,148576,148601,148626,148651,148676,148701,148726,148751,148776,148801,148826,148851,148876,148901,148926,148951,148976,149001,149026,149051,149076,149101,149126,149151,149176,149201,149226,149251,149276,149301,149326,149351,149376,149401,149426,149451,149476,149501,149526,149551,149576,149601,149626,149651,149676,149701,149726,149751,149776,149801,149826,149851,149876,149901,149926,149951,149976,150001,150026,150051,150076,150101,150126,150151,150176,150201,150226,150251,150276,150301,150326,150351,150376,150401,150426,150451,150476,150501,150526,150551,150576,150601,150626,150651,150676,150701,150726,150751,150776,150801,150826,150851,150876,150901,150926,150951,150976,151001,151026,151051,151076,151101,151126,151151,151176,151201,151226,151251,151276,151301,151326,151351,151376,151401,151426,151451,151476,151501,151526,151551,151576,151601,151626,151651,151676,151701,151726,151751,151776,151801,151826,151851,151876,151901,151926,151951,151976,152001,152026,152051,152076,152101,152126,152151,152176,152201,152226,152251,152276,152301,152326,152351,152376,152401,152426,152451,152476,152501,152526,152551,152576,152601,152626,152651,152676,152701,152726,152751,152776,152801,152826,152851,152876,152901,152926,152951,152976,153001,153026,153051,153076,153101,153126,153151,153176,153201,153226,153251,153276,153301,153326,153351,153376,153401,153426,153451,153476,153501,153526,153551,153576,153601,153626,153651,153676,153701,153726,153751,153776,153801,153826,153851,153876,153901,153926,153951,153976,154001,154026,154051,154076,154101,154126,154151,154176,154201,154226,154251,154276,154301,154326,154351,154376,154401,154426,154451,154476,154501,154526,154551,154576,154601,154626,154651,154676,154701,154726,154751,154776,154801,154826,154851,154876,154901,154926,154951,154976,155001,155026,155051,155076,155101,155126,155151,155176,155201,155226,155251,155276,155301,155326,155351,155376,155401,155426,155451,155476,155501,155526,155551,155576,155601,155626,155651,155676,155701,155726,155751,155776,155801,155826,155851,155876,155901,155926,155951,155976,156001,156026,156051,156076,156101,156126,156151,156176,156201,156226,156251,156276,156301,156326,156351,156376,156401,156426,156451,156476,156501,156526,156551,156576,156601,156626,156651,156676,156701,156726,156751,156776,156801,156826,156851,156876,156901,156926,156951,156976,157001,157026,157051,157076,157101,157126,157151,157176,157201,157226,157251,157276,157301,157326,157351,157376,157401,157426,157451,157476,157501,157526,157551,157576,157601,157626,157651,157676,157701,157726,157751,157776,157801,157826,157851,157876,157901,157926,157951,157976,158001,158026,158051,158076,158101,158126,158151,158176,158201,158226,158251,158276,158301,158326,158351,158376,158401,158426,158451,158476,158501,158526,158551,158576,158601,158626,158651,158676,158701,158726,158751,158776,158801,158826,158851,158876,158901,158926,158951,158976,159001,159026,159051,159076,159101,159126,159151,159176,159201,159226,159251,159276,159301,159326,159351,159376,159401,159426,159451,159476,159501,159526,159551,159576,159601,159626,159651,159676,159701,159726,159751,159776,159801,159826,159851,159876,159901,159926,159951,159976

scales=… convolutional]
batch_normalize=1
filters=32
size=3
stride=1
pad=1
activation=mish

# Downsample

[convolutional]
batch_normalize=1
filters=64
size=3
stride=2
pad=1
activation=mish

[convolutional]
batch_normalize=1
filters=64
size=1
stride=1
pad=1
activation=mish

[route]
layers = -2

[convolutional]
batch_normalize=1
filters=64
size=1
stride=1
pad=1
activation=mish

[convolutional]
batch_normalize=1
filters=32
size=1
stride=1
pad=1
activation=mish

[convolutional]
batch_normalize=1
filters=64
size=3
stride=1
pad=1
activation=mish

[shortcut]
from=-3
activation=linear

[convolutional]
batch_normalize=1
filters=64
size=1
stride=1
pad=1
activation=mish

[route]
layers = -1,-7

[convolutional]
batch_normalize=1
filters=64
size=1
stride=1
pad=1
activation=mish

# Downsample

[convolutional]
batch_normalize=1
filters=128
size=3
stride=2
pad=1
activation=mish

[convolutional]
batch_normalize=1
filters=64
size=1
stride=1
pad=1
activation=mish

[route]
layers = -2

[convolutional]
batch_normalize=1
filters=64
size=1
stride=1
pad=1
activation=mish

[convolutional]
batch_normalize=1
filters=64
size=1
stride=1
pad=1
activation=mish

[convolutional]
batch_normalize=1
filters=64
size=3
stride=1
pad=1
activation=mish

[shortcut]
from=-3
activation=linear

[convolutional]
batch_normalize=1
filters=64
size=1
stride=1
pad=1
activation=mish

[convolutional]
batch_normalize=1
filters=64
size=3
stride=1
pad=1
activation=mish

[shortcut]
from=-3
activation=linear

[convolutional]
batch_normalize=1
filters=64
size=1
stride=1
pad=1
activation=mish

[route]
layers = -1,-10

[convolutional]
batch_normalize=1
filters=128
size=1
stride=1
pad=1
activation=mish

# Downsample

[convolutional]
batch_normalize=1
filters=256
size=3
stride=2
pad=1
activation=mish

[convolutional]
batch_normalize=1
filters=128
size=1
stride=1
pad=1
activation=mish

[route]
layers = -2

[convolutional]
batch_normalize=1
filters=128
size=1
stride=1
pad=1
activation=mish

[convolutional]
batch_normalize=1
filters=128
size=1
stride=1
pad=1
activation=mish

[convolutional]
batch_normalize=1
filters=128
size=3
stride=1
pad=1
activation=mish

[shortcut]
from=-3
activation=linear

[convolutional]
batch_normalize=1
filters=128
size=1
stride=1
pad=1
activation=mish

[convolutional]
batch_normalize=1
filters=128
size=3
stride=1
pad=1
activation=mish

[shortcut]
from=-3
activation=linear

[convolutional]
batch_normalize=1
filters=128
size=1
stride=1
pad=1
activation=mish

[convolutional]
batch_normalize=1
filters=128
size=3
stride=1
pad=1
activation=mish

[shortcut]
from=-3
activation=linear

[convolutional]
batch_normalize=1
filters=128
size=1
stride=1
pad=1
activation=mish

[convolutional]
batch_normalize=1
filters=128
size=3
stride=1
pad=1
activation=mish

[shortcut]
from=-3
activation=linear


[convolutional]
batch_normalize=1
filters=128
size=1
stride=1
pad=1
activation=mish

[convolutional]
batch_normalize=1
filters=128
size=3
stride=1
pad=1
activation=mish

[shortcut]
from=-3
activation=linear

[convolutional]
batch_normalize=1
filters=128
size=1
stride=1
pad=1
activation=mish

[convolutional]
batch_normalize=1
filters=128
size=3
stride=1
pad=1
activation=mish

[shortcut]
from=-3
activation=linear

[convolutional]
batch_normalize=1
filters=128
size=1
stride=1
pad=1
activation=mish

[convolutional]
batch_normalize=1
filters=128
size=3
stride=1
pad=1
activation=mish

[shortcut]
from=-3
activation=linear

[convolutional]
batch_normalize=1
filters=128
size=1
stride=1
pad=1
activation=mish

[convolutional]
batch_normalize=1
filters=128
size=3
stride=1
pad=1
activation=mish

[shortcut]
from=-3
activation=linear

[convolutional]
batch_normalize=1
filters=128
size=1
stride=1
pad=1
activation=mish

[route]
layers = -1,-28

[convolutional]
batch_normalize=1
filters=256
size=1
stride=1
pad=1
activation=mish

# Downsample

[convolutional]
batch_normalize=1
filters=512
size=3
stride=2
pad=1
activation=mish

[convolutional]
batch_normalize=1
filters=256
size=1
stride=1
pad=1
activation=mish

[route]
layers = -2

[convolutional]
batch_normalize=1
filters=256
size=1
stride=1
pad=1
activation=mish

[convolutional]
batch_normalize=1
filters=256
size=1
stride=1
pad=1
activation=mish

[convolutional]
batch_normalize=1
filters=256
size=3
stride=1
pad=1
activation=mish

[shortcut]
from=-3
activation=linear


[convolutional]
batch_normalize=1
filters=256
size=1
stride=1
pad=1
activation=mish

[convolutional]
batch_normalize=1
filters=256
size=3
stride=1
pad=1
activation=mish

[shortcut]
from=-3
activation=linear


[convolutional]
batch_normalize=1
filters=256
size=1
stride=1
pad=1
activation=mish

[convolutional]
batch_normalize=1
filters=256
size=3
stride=1
pad=1
activation=mish

[shortcut]
from=-3
activation=linear


[convolutional]
batch_normalize=1
filters=256
size=1
stride=1
pad=1
activation=mish

[convolutional]
batch_normalize=1
filters=256
size=3
stride=1
pad=1
activation=mish

[shortcut]
from=-3
activation=linear


[convolutional]
batch_normalize=1
filters=256
size=1
stride=1
pad=1
activation=mish

[convolutional]
batch_normalize=1
filters=256
size=3
stride=1
pad=1
activation=mish

[shortcut]
from=-3
activation=linear


[convolutional]
batch_normalize=1
filters=256
size=1
stride=1
pad=1
activation=mish

[convolutional]
batch_normalize=1
filters=256
size=3
stride=1
pad=1
activation=mish

[shortcut]
from=-3
activation=linear


[convolutional]
batch_normalize=1
filters=256
size=1
stride=1
pad=1
activation=mish

[convolutional]
batch_normalize=1
filters=256
size=3
stride=1
pad=1
activation=mish

[shortcut]
from=-3
activation=linear

[convolutional]
batch_normalize=1
filters=256
size=1
stride=1
pad=1
activation=mish

[convolutional]
batch_normalize=1
filters=256
size=3
stride=1
pad=1
activation=mish

[shortcut]
from=-3
activation=linear

[convolutional]
batch_normalize=1
filters=256
size=1
stride=1
pad=1
activation=mish

[route]
layers = -1,-28

[convolutional]
batch_normalize=1
filters=512
size=1
stride=1
pad=1
activation=mish

# Downsample

[convolutional]
batch_normalize=1
filters=1024
size=3
stride=2
pad=1
activation=mish

[convolutional]
batch_normalize=1
filters=512
size=1
stride=1
pad=1
activation=mish

[route]
layers = -2

[convolutional]
batch_normalize=1
filters=512
size=1
stride=1
pad=1
activation=mish

[convolutional]
batch_normalize=1
filters=512
size=1
stride=1
pad=1
activation=mish

[convolutional]
batch_normalize=1
filters=512
size=3
stride=1
pad=1
activation=mish

[shortcut]
from=-3
activation=linear

[convolutional]
batch_normalize=1
filters=512
size=1
stride=1
pad=1
activation=mish

[convolutional]
batch_normalize=1
filters=512
size=3
stride=1
pad=1
activation=mish

[shortcut]
from=-3
activation=linear

[convolutional]
batch_normalize=1
filters=512
size=1
stride=1
pad=1
activation=mish

[convolutional]
batch_normalize=1
filters=512
size=3
stride=1
pad=1
activation=mish

[shortcut]
from=-3
activation=linear

[convolutional]
batch_normalize=1
filters=512
size=1
stride=1
pad=1
activation=mish

[convolutional]
batch_normalize=1
filters=512
size=3
stride=1
pad=1
activation=mish

[shortcut]
from=-3
activation=linear

[convolutional]
batch_normalize=1
filters=512
size=1
stride=1
pad=1
activation=mish

[route]
layers = -1,-16

[convolutional]
batch_normalize=1
filters=1024
size=1
stride=1
pad=1
activation=mish

##########################

[convolutional]
batch_normalize=1
filters=512
size=1
stride=1
pad=1
activation=leaky

[convolutional]
batch_normalize=1
size=3
stride=1
pad=1
filters=1024
activation=leaky

[convolutional]
batch_normalize=1
filters=512
size=1
stride=1
pad=1
activation=leaky

### SPP ###
[maxpool]
stride=1
size=5

[route]
layers=-2

[maxpool]
stride=1
size=9

[route]
layers=-4

[maxpool]
stride=1
size=13

[route]
layers=-1,-3,-5,-6
### End SPP ###

[convolutional]
batch_normalize=1
filters=512
size=1
stride=1
pad=1
activation=leaky

[convolutional]
batch_normalize=1
size=3
stride=1
pad=1
filters=1024
activation=leaky

[convolutional]
batch_normalize=1
filters=512
size=1
stride=1
pad=1
activation=leaky

[convolutional]
batch_normalize=1
filters=256
size=1
stride=1
pad=1
activation=leaky

[upsample]
stride=2

[route]
layers = 85

[convolutional]
batch_normalize=1
filters=256
size=1
stride=1
pad=1
activation=leaky

[route]
layers = -1, -3

[convolutional]
batch_normalize=1
filters=256
size=1
stride=1
pad=1
activation=leaky

[convolutional]
batch_normalize=1
size=3
stride=1
pad=1
filters=512
activation=leaky

[convolutional]
batch_normalize=1
filters=256
size=1
stride=1
pad=1
activation=leaky

[convolutional]
batch_normalize=1
size=3
stride=1
pad=1
filters=512
activation=leaky

[convolutional]
batch_normalize=1
filters=256
size=1
stride=1
pad=1
activation=leaky

[convolutional]
batch_normalize=1
filters=128
size=1
stride=1
pad=1
activation=leaky

[upsample]
stride=2

[route]
layers = 54

[convolutional]
batch_normalize=1
filters=128
size=1
stride=1
pad=1
activation=leaky

[route]
layers = -1, -3

[convolutional]
batch_normalize=1
filters=128
size=1
stride=1
pad=1
activation=leaky

[convolutional]
batch_normalize=1
size=3
stride=1
pad=1
filters=256
activation=leaky

[convolutional]
batch_normalize=1
filters=128
size=1
stride=1
pad=1
activation=leaky

[convolutional]
batch_normalize=1
size=3
stride=1
pad=1
filters=256
activation=leaky

[convolutional]
batch_normalize=1
filters=128
size=1
stride=1
pad=1
activation=leaky

##########################

[convolutional]
batch_normalize=1
size=3
stride=1
pad=1
filters=256
activation=leaky

[convolutional]
size=1
stride=1
pad=1
filters=48
activation=linear


[yolo]
mask = 0,1,2
anchors = 12, 16, 19, 36, 40, 28, 36, 75, 76, 55, 72, 146, 142, 110, 192, 243, 459, 401
classes=11
num=9
ignore_thresh = .7
truth_thresh = 1
scale_x_y = 1.2
iou_thresh=0.213
cls_normalizer=1.0
iou_normalizer=0.07
iou_loss=ciou
nms_kind=greedynms
beta_nms=0.6
max_delta=5


[route]
layers = -4

[convolutional]
batch_normalize=1
size=3
stride=2
pad=1
filters=256
activation=leaky

[route]
layers = -1, -16

[convolutional]
batch_normalize=1
filters=256
size=1
stride=1
pad=1
activation=leaky

[convolutional]
batch_normalize=1
size=3
stride=1
pad=1
filters=512
activation=leaky

[convolutional]
batch_normalize=1
filters=256
size=1
stride=1
pad=1
activation=leaky

[convolutional]
batch_normalize=1
size=3
stride=1
pad=1
filters=512
activation=leaky

[convolutional]
batch_normalize=1
filters=256
size=1
stride=1
pad=1
activation=leaky

[convolutional]
batch_normalize=1
size=3
stride=1
pad=1
filters=512
activation=leaky

[convolutional]
size=1
stride=1
pad=1
filters=48
activation=linear


[yolo]
mask = 3,4,5
anchors = 12, 16, 19, 36, 40, 28, 36, 75, 76, 55, 72, 146, 142, 110, 192, 243, 459, 401
classes=11
num=9
ignore_thresh = .7
truth_thresh = 1
scale_x_y = 1.1
iou_thresh=0.213
cls_normalizer=1.0
iou_normalizer=0.07
iou_loss=ciou
nms_kind=greedynms
beta_nms=0.6
max_delta=5


[route]
layers = -4

[convolutional]
batch_normalize=1
size=3
stride=2
pad=1
filters=512
activation=leaky

[route]
layers = -1, -37

[convolutional]
batch_normalize=1
filters=512
size=1
stride=1
pad=1
activation=leaky

[convolutional]
batch_normalize=1
size=3
stride=1
pad=1
filters=1024
activation=leaky

[convolutional]
batch_normalize=1
filters=512
size=1
stride=1
pad=1
activation=leaky

[convolutional]
batch_normalize=1
size=3
stride=1
pad=1
filters=1024
activation=leaky

[convolutional]
batch_normalize=1
filters=512
size=1
stride=1
pad=1
activation=leaky

[convolutional]
batch_normalize=1
size=3
stride=1
pad=1
filters=1024
activation=leaky

[convolutional]
size=1
stride=1
pad=1
filters=48
activation=linear


[yolo]
mask = 6,7,8
anchors = 12, 16, 19, 36, 40, 28, 36, 75, 76, 55, 72, 146, 142, 110, 192, 243, 459, 401
classes=11
num=9
ignore_thresh = .7
truth_thresh = 1
scale_x_y = 1.05
iou_thresh=0.213
cls_normalizer=1.0
iou_normalizer=0.07
iou_loss=ciou
nms_kind=greedynms
beta_nms=0.6
max_delta=5

